====================
Parameters
--------------------
data direction = /opt/carnd_p3/data
csv name = driving_log.csv
input shape = (160, 320, 3)
proportion of validation = 0.2
loss function = mse
model optimizer = adam
batch size = 64
steps per epoch = 200
training epochs = 20
valid per steps = 50
====================
_________________________________________________________________
Layer (type)                 Output Shape              Param #   
=================================================================
lambda (Lambda)              (None, 160, 320, 3)       0         
_________________________________________________________________
cropping2d (Cropping2D)      (None, 90, 320, 3)        0         
_________________________________________________________________
conv2d (Conv2D)              (None, 43, 158, 24)       1824      
_________________________________________________________________
dropout (Dropout)            (None, 43, 158, 24)       0         
_________________________________________________________________
conv2d_1 (Conv2D)            (None, 20, 77, 36)        21636     
_________________________________________________________________
dropout_1 (Dropout)          (None, 20, 77, 36)        0         
_________________________________________________________________
conv2d_2 (Conv2D)            (None, 8, 37, 48)         43248     
_________________________________________________________________
dropout_2 (Dropout)          (None, 8, 37, 48)         0         
_________________________________________________________________
conv2d_3 (Conv2D)            (None, 4, 33, 64)         76864     
_________________________________________________________________
dropout_3 (Dropout)          (None, 4, 33, 64)         0         
_________________________________________________________________
flatten (Flatten)            (None, 8448)              0         
_________________________________________________________________
dense (Dense)                (None, 100)               844900    
_________________________________________________________________
dense_1 (Dense)              (None, 50)                5050      
_________________________________________________________________
dense_2 (Dense)              (None, 10)                510       
_________________________________________________________________
dense_3 (Dense)              (None, 1)                 11        
=================================================================
Total params: 994,043
Trainable params: 994,043
Non-trainable params: 0
_________________________________________________________________
2019-12-07 02:54:17.107020: I tensorflow/core/platform/cpu_feature_guard.cc:141] Your CPU supports instructions that this TensorFlow binary was not compiled to use: SSE4.1 SSE4.2 AVX AVX2 FMA
…
